Model: "diffusion_model"
┏━━━━━━━━━━━━━━━━━━━━━━━━━━━━━━━━━┳━━━━━━━━━━━━━━━━━━━━━━━━┳━━━━━━━━━━━━━━━┓
┃ Layer (type)                    ┃ Output Shape           ┃       Param # ┃
┡━━━━━━━━━━━━━━━━━━━━━━━━━━━━━━━━━╇━━━━━━━━━━━━━━━━━━━━━━━━╇━━━━━━━━━━━━━━━┩
│ normalization (Normalization)   │ (64, 64, 64, 3)        │             7 │
├─────────────────────────────────┼────────────────────────┼───────────────┤
│ revolutionary_unet (Functional) │ (None, 64, 64, 3)      │     4,264,585 │
├─────────────────────────────────┼────────────────────────┼───────────────┤
│ revolutionary_unet (Functional) │ (None, 64, 64, 3)      │     4,264,585 │
└─────────────────────────────────┴────────────────────────┴───────────────┘
 Total params: 8,529,177 (32.54 MB)
 Trainable params: 8,529,170 (32.54 MB)
 Non-trainable params: 7 (32.00 B)
None
Model: "revolutionary_unet"
┏━━━━━━━━━━━━━━━━━━━━━┳━━━━━━━━━━━━━━━━━━━┳━━━━━━━━━━━━┳━━━━━━━━━━━━━━━━━━━┓
┃ Layer (type)        ┃ Output Shape      ┃    Param # ┃ Connected to      ┃
┡━━━━━━━━━━━━━━━━━━━━━╇━━━━━━━━━━━━━━━━━━━╇━━━━━━━━━━━━╇━━━━━━━━━━━━━━━━━━━┩
│ input_layer_1       │ (None, 1, 1, 1)   │          0 │ -                 │
│ (InputLayer)        │                   │            │                   │
├─────────────────────┼───────────────────┼────────────┼───────────────────┤
│ input_layer         │ (None, 64, 64, 3) │          0 │ -                 │
│ (InputLayer)        │                   │            │                   │
├─────────────────────┼───────────────────┼────────────┼───────────────────┤
│ lambda (Lambda)     │ (None, 1, 1, 128) │          0 │ input_layer_1[0]… │
├─────────────────────┼───────────────────┼────────────┼───────────────────┤
│ conv2d (Conv2D)     │ (None, 64, 64,    │        896 │ input_layer[0][0] │
│                     │ 32)               │            │                   │
├─────────────────────┼───────────────────┼────────────┼───────────────────┤
│ up_sampling2d       │ (None, 64, 64,    │          0 │ lambda[0][0]      │
…
│                     │ 96)               │            │                   │
├─────────────────────┼───────────────────┼────────────┼───────────────────┤
│ conv2d_17 (Conv2D)  │ (None, 16, 16,    │     83,040 │ dropout_5[0][0]   │
│                     │ 96)               │            │                   │
├─────────────────────┼───────────────────┼────────────┼───────────────────┤
│ add_5 (Add)         │ (None, 16, 16,    │          0 │ conv2d_17[0][0],  │
│                     │ 96)               │            │ add_4[0][0]       │
├─────────────────────┼───────────────────┼────────────┼───────────────────┤
│ conv2d_18 (Conv2D)  │ (None, 8, 8, 96)  │     83,040 │ add_5[0][0]       │
├─────────────────────┼───────────────────┼────────────┼───────────────────┤
│ group_normalizatio… │ (None, 8, 8, 96)  │        192 │ conv2d_18[0][0]   │
│ (GroupNormalizatio… │                   │            │                   │
├─────────────────────┼───────────────────┼────────────┼───────────────────┤
│ activation_12       │ (None, 8, 8, 96)  │          0 │ group_normalizat… │
│ (Activation)        │                   │            │                   │
├─────────────────────┼───────────────────┼────────────┼───────────────────┤
│ conv2d_20 (Conv2D)  │ (None, 8, 8, 128) │    110,720 │ activation_12[0]… │
├─────────────────────┼───────────────────┼────────────┼───────────────────┤
│ adaptive_feature_m… │ (None, 8, 8, 128) │    197,376 │ conv2d_20[0][0],  │
│ (AdaptiveFeatureMo… │                   │            │ dense_1[0][0]     │
├─────────────────────┼───────────────────┼────────────┼───────────────────┤
│ group_normalizatio… │ (None, 8, 8, 128) │        256 │ adaptive_feature… │
│ (GroupNormalizatio… │                   │            │                   │
├─────────────────────┼───────────────────┼────────────┼───────────────────┤
│ activation_13       │ (None, 8, 8, 128) │          0 │ group_normalizat… │
│ (Activation)        │                   │            │                   │
├─────────────────────┼───────────────────┼────────────┼───────────────────┤
│ dropout_6 (Dropout) │ (None, 8, 8, 128) │          0 │ activation_13[0]… │
├─────────────────────┼───────────────────┼────────────┼───────────────────┤
│ conv2d_21 (Conv2D)  │ (None, 8, 8, 128) │    147,584 │ dropout_6[0][0]   │
├─────────────────────┼───────────────────┼────────────┼───────────────────┤
│ cross_scale_attent… │ (None, 8, 8, 128) │    181,376 │ conv2d_21[0][0]   │
│ (CrossScaleAttenti… │                   │            │                   │
├─────────────────────┼───────────────────┼────────────┼───────────────────┤
│ conv2d_19 (Conv2D)  │ (None, 8, 8, 128) │     12,416 │ conv2d_18[0][0]   │
├─────────────────────┼───────────────────┼────────────┼───────────────────┤
│ add_6 (Add)         │ (None, 8, 8, 128) │          0 │ cross_scale_atte… │
│                     │                   │            │ conv2d_19[0][0]   │
├─────────────────────┼───────────────────┼────────────┼───────────────────┤
│ group_normalizatio… │ (None, 8, 8, 128) │        256 │ add_6[0][0]       │
│ (GroupNormalizatio… │                   │            │                   │
├─────────────────────┼───────────────────┼────────────┼───────────────────┤
│ activation_14       │ (None, 8, 8, 128) │          0 │ group_normalizat… │
│ (Activation)        │                   │            │                   │
├─────────────────────┼───────────────────┼────────────┼───────────────────┤
│ conv2d_23 (Conv2D)  │ (None, 8, 8, 128) │    147,584 │ activation_14[0]… │
├─────────────────────┼───────────────────┼────────────┼───────────────────┤
│ adaptive_feature_m… │ (None, 8, 8, 128) │    197,376 │ conv2d_23[0][0],  │
│ (AdaptiveFeatureMo… │                   │            │ dense_1[0][0]     │
├─────────────────────┼───────────────────┼────────────┼───────────────────┤
│ group_normalizatio… │ (None, 8, 8, 128) │        256 │ adaptive_feature… │
│ (GroupNormalizatio… │                   │            │                   │
├─────────────────────┼───────────────────┼────────────┼───────────────────┤
│ activation_15       │ (None, 8, 8, 128) │          0 │ group_normalizat… │
│ (Activation)        │                   │            │                   │
├─────────────────────┼───────────────────┼────────────┼───────────────────┤
│ dropout_8 (Dropout) │ (None, 8, 8, 128) │          0 │ activation_15[0]… │
├─────────────────────┼───────────────────┼────────────┼───────────────────┤
│ conv2d_24 (Conv2D)  │ (None, 8, 8, 128) │    147,584 │ dropout_8[0][0]   │
├─────────────────────┼───────────────────┼────────────┼───────────────────┤
│ cross_scale_attent… │ (None, 8, 8, 128) │    181,376 │ conv2d_24[0][0]   │
│ (CrossScaleAttenti… │                   │            │                   │
├─────────────────────┼───────────────────┼────────────┼───────────────────┤
│ add_7 (Add)         │ (None, 8, 8, 128) │          0 │ cross_scale_atte… │
│                     │                   │            │ add_6[0][0]       │
├─────────────────────┼───────────────────┼────────────┼───────────────────┤
│ conv2d_transpose    │ (None, 16, 16,    │    110,688 │ add_7[0][0]       │
│ (Conv2DTranspose)   │ 96)               │            │                   │
├─────────────────────┼───────────────────┼────────────┼───────────────────┤
…
